models/carbon_model.pt (torch, 6458 bytes, 5 tensors)

model.0.weight f4 [32, 11]
0.47105062 0.16743952 -0.5030333 -0.1354357 0.45038193 0.022913208 0.29336333 -0.29304722
-0.4704903 0.5347063 0.4270112 0.70241374 -0.12137619 -0.034436345 0.039138116 0.069710515
0.007081373 0.08203505 0.017335124 -0.6270012 0.39530945 0.6419861 0.53472686 0.16349275
-0.020643543 0.0054804203 -0.080076374 -0.015619739 0.03945964 0.008510772 -0.6835993 0.68413675
0.63397145 0.05734705 0.2614787 -0.045601856 -0.25026426 -0.31550476 -0.17487499 -0.45728728
-0.18565868 -0.276417 -0.111715086 0.31730503 0.55940765 0.12337794 0.3106512 0.11211211
0.24896784 -0.02529145 0.2173893 -0.014988213 -0.7354198 1.2895175 0.2503456 0.094584875
0.33773282 0.46562266 -0.3309393 0.40948373 0.36112306 0.43185487 -0.43425363 -0.50236344
0.32936218 0.09726767 0.022021787 -0.4246333 -0.06809207 0.16999835 -0.16322799 -0.09435693
0.37488392 0.1662838 -0.4381547 0.77193886 0.43411636 0.6097816 -0.078354985 -0.02348536
0.0190937 0.045879528 0.020091876 0.08229054 0.010109763 -0.30134028 0.7488854 0.6492178
0.71676606 0.016139036 -0.02865333 -0.0034762262 0.020777185 0.0011086698 0.046507657 0.0061404384
0.0025329536 -1.1789598 0.18775496 0.32144403 0.3584533 0.36761156 0.18265706 -0.2618866
-0.26586688 0.4491614 -0.27597612 -0.07722219 -0.6850586 0.40796962 0.46776313 0.32546118
0.6175594 -0.2740319 -0.28985518 0.40862897 0.07682403 -0.40519333 -0.050218005 -0.36183342
0.56203187 0.2152572 0.32253274 0.2657232 -0.42738202 -0.240975 -0.365465 0.48173267
-0.21837184 -0.525349 -0.40738577 0.4902587 0.50337 0.12602556 0.3027955 -0.20515569
0.2662644 0.056672845 0.15317893 0.17340644 -0.122388236 -0.9113219 0.15527374 0.38679883
0.22555128 -0.42876276 -0.21386097 0.14512038 0.19142017 -0.30246538 0.03995338 -0.04955374
-0.88736224 0.09438887 0.5957415 -0.14154288 0.24152839 0.119066074 0.05741551 -0.08553331
-0.057564717 0.121781364 0.08897731 -0.5875907 0.45171708 0.35770354 0.32453597 -0.5236559
-0.36879385 0.33097538 0.3998513 0.14822246 0.47637534 -0.22403553 -0.026883837 0.3853614
0.38571522 -0.12406927 -0.04235773 0.35876602 0.28663537 -0.11772878 0.5619735 0.2742811
-0.44645032 -0.69171375 0.32304025 0.3454613 0.167288 -0.45335746 -0.08965664 0.2931218
0.17298137 0.30762437 0.049357843 -0.45862126 -0.49519333 0.40335384 0.6534326 -0.16313176
-0.0060538864 -0.0060678073 -0.02557461 -0.042075932 -0.010067858 0.023562066 -0.4014309 0.6393995
0.61219037 0.48073417 -0.06947531 -0.11469225 0.092614725 0.33947352 0.034535848 0.3549981
0.024738813 0.071038075 -0.5015187 0.074329 0.36894515 -0.01900996 0.42711082 -0.39737752
-0.40570855 0.2646016 -0.41783857 0.17893153 -0.31489357 -0.6413168 0.3329852 0.5618608
0.29273984 -0.55954 -0.06118746 -0.43803924 -0.07426363 0.026716117 0.29802117 -0.10692562
-0.58914137 0.50373936 0.32943496 0.1718663 -0.56224406 -0.1056484 0.5667568 -0.25759777
0.27818063 -0.2706526 -0.25112796 -0.5760114 0.3923535 0.20372108 0.3789362 0.688992
00000000: 8c2d f13e 4475 2b3e cac6 00bf a8af 0abe
00000010: 7698 e63e 7bb4 bb3c b833 963e 490a 96be
00000020: 1be4 f0be 83e2 083f 36a1 da3e 63d1 333f
00000030: 1494 f8bd 200d 0dbd 4a4f 203d 63c4 8e3d
00000040: dd0a e83b fe01 a83d 6402 8e3c 2783 20bf
00000050: 0066 ca3e 3359 243f dce3 083f a56a 273e
00000060: a61c a9bc 1995 b33b 15ff a3bd efe9 7fbc
00000070: 6ea0 213d c470 0b3c 5d00 2fbf 9623 2f3f
00000080: f44b 223f bee4 6a3d 89e0 853e 03c9 3abd
00000090: a322 80be d789 a1be 6e12 33be 8f21 eabe
000000a0: 4f1d 3ebe 8786 8dbe e1ca e4bd ce75 a23e
000000b0: 5735 0f3f 93ad fc3d ad0d 9f3e 099b e53d
000000c0: 6df1 7e3e 0430 cfbc 4d9b 5e3e 1f91 75bc
000000d0: 7944 3cbf e90e a53f 4c2d 803e b7b5 c13d
000000e0: 51eb ac3e 1866 ee3e e070 a9be daa7 d13e
000000f0: 1fe5 b83e 151c dd3e 7e56 debe e49a 00bf
00000100: 29a2 a83e 4634 c73d 0967 b43c 8969 d9be
00000110: db73 8bbd 0c14 2e3e 3d25 27be 353e c1bd
00000120: c9f0 bf3e 4d46 2a3e d055 e0be c99d 453f
00000130: 8044 de3e a61a 1c3f 9478 a0bd 5f64 c0bc
00000140: 646a 9c3c 2cec 3b3d b897 a43c f187 a83d
00000150: 6ba3 253c 4649 9abe f4b6 3f3f 2333 263f
00000160: fb7d 373f 0336 843c 63ba eabc 66d1 63bb
00000170: ea34 aa3c c950 913a d07e 3e3d bb35 c93b
00000180: e9ff 253b 28e8 96bf d642 403e 5094 a43e
00000190: 3187 b73e 9537 bc3e 740a 3b3e 0016 86be
000001a0: b41f 88be 7cf8 e53e be4c 8dbe ab26 9ebd
000001b0: 0060 2fbf 65e1 d03e a67e ef3e d9a2 a63e
000001c0: 5f18 1e3f e94d 8cbe e667 94be d137 d13e
000001d0: eb55 9d3d 8075 cfbe 65b1 4dbd 3b42 b9be
000001e0: 52e1 0f3f 626c 5c3e 0323 a53e df0c 883e
000001f0: d1d1 dabe 27c2 76be 3a1e bbbe aaa5 f63e
00000200: de9c 5fbe 467d 06bf de94 d0be 3003 fb3e
00000210: dbdc 003f d80c 013e 0308 9b3e 5514 52be
00000220: cf53 883e c921 683d f0da 1c3e 7591 313e
00000230: afa6 fabd 644c 69bf 1400 1f3e 7f0a c63e
00000240: eaf6 663e cb86 dbbe 5ffe 5abe 709a 143e
00000250: a603 443e bedc 9abe 28a6 233d ddf8 4abd
00000260: 2c2a 63bf f44e c13d 8482 183f 9ef0 10be
00000270: 3853 773e ead8 f33d 872c 6b3d 172c afbd
00000280: fbc8 6bbd 8268 f93d bc39 b63d 586c 16bf
00000290: 7647 e73e eb24 b73e 9429 a63e 500e 06bf
000002a0: 8cd2 bcbe 9b75 a93e 4fb9 cc3e a1c7 173e
000002b0: 78e7 f33e 9269 65be 7e3b dcbc 174e c53e
000002c0: 777c c53e 0818 febd 4d7f 2dbd 2eb0 b73e
000002d0: dfc1 923e c91b f1bd 7fdd 0f3f 936e 8c3e
000002e0: 2395 e4be 2714 31bf 8865 a53e 4ee0 b03e
000002f0: 8c4d 2b3e 781e e8be e79d b7bd 1014 963e
00000300: 0722 313e f180 9d3e 732b 4a3d 68d0 eabe
00000310: fb89 fdbe 6584 ce3e 5c47 273f 030c 27be
00000320: ae5f c6bb 75d4 c6bb d881 d1bc d057 2cbd
00000330: a8f3 24bc 3c05 c13c 5a88 cdbe b0af 233f
00000340: 82b8 1c3f ca22 f63e 1249 8ebd c5e3 eabd
00000350: caac bd3d 79cf ad3e 7675 0d3d 50c2 b53e
00000360: 0da9 ca3c 697c 913d 8863 00bf ce39 983d
00000370: 61e6 bc3e c7ba 9bbc 45ae da3e 1175 cbbe
00000380: 08b9 cfbe dc79 873e f0ee d5be d439 373e
00000390: bb39 a1be 562d 24bf 097d aa3e 1cd6 0f3f
000003a0: ffe1 953e 033e 0fbf b49f 7abd ae46 e0be
000003b0: 8817 98bd c2db da3c 3b96 983e d2fb dabd
000003c0: f8d1 16bf 10f5 003f b3ab a83e b8fd 2f3e
000003d0: 3aef 0fbf 305e d8bd f916 113f dbe3 83be
000003e0: b16d 8e3e fa92 8abe d893 80be 7c75 13bf
000003f0: 8fe2 c83e 429c 503e ed03 c23e c861 303f

model.0.bias f4 [32]
0.17062466 0.23638417 0.4300639 0.13686737 0.40983954 0.1553554 0.17907314 0.29254875
0.516031 0.17617434 0.039637424 0.56398726 0.57813823 0.25563705 0.50125086 0.5778673
0.33876118 0.4508866 0.3774921 -0.6357751 0.24181332 0.38400707 0.21958213 0.340616
0.6500204 0.5843832 0.5691319 0.40502304 0.53451616 0.5169668 0.3334038 0.21070689
00000000: 3bb8 2e3e b10e 723e 5631 dc3e f626 0c3e
00000010: 7dd6 d13e 7c15 1f3e f35e 373e f3c8 953e
00000020: 9c1a 043f 0c67 343e da5a 223d 7861 103f
00000030: de00 143f dce2 823e fa51 003f 1def 133f
00000040: 1b72 ad3e 9cda e63e a546 c13e 28c2 22bf
00000050: e99d 773e 939c c43e 23da 603e 3865 ae3e
00000060: bd67 263f 239a 153f a1b2 113f 2e5f cf3e
00000070: 0dd6 083f f057 043f e7b3 aa3e 8cc3 573e

model.2.weight f4 [16, 32]
-0.11224832 -0.12417746 0.12155308 0.062917024 -0.011870719 -0.100023955 -0.08695131 0.08043998
-0.19617905 0.10873799 -0.14729536 0.070132285 -0.0035262667 -0.0327081 0.01706193 -0.0778891
0.018628638 -0.02110599 -0.16189806 -0.0742996 -0.1738991 -0.1196635 -0.2072289 -0.005991223
0.010326513 -0.18751547 -0.14551504 0.071975 0.011781369 0.09422609 -0.07701833 0.10230709
0.37738746 0.33148456 0.35568175 0.23696783 0.26971218 0.3820852 0.41336748 0.34111503
0.5299985 0.4513409 0.40421456 0.3460377 0.25008246 0.46531868 0.5131275 0.41777787
0.29932314 0.35231245 0.3934393 0.4861394 0.4516129 0.16052155 0.39620358 0.16177689
0.23142067 0.3872799 0.31505442 0.18910456 0.18860593 0.37853494 0.26135507 0.29046676
-0.019199941 0.06900368 0.024412865 0.07005272 -0.007515001 0.024623508 0.09979527 -0.076637365
-0.0925029 0.08311528 0.055788234 -0.076042585 -0.1521969 0.067277476 -0.017788265 -0.23189199
-0.05396219 0.10143053 0.03175362 -0.009918781 -0.23721941 -0.19230478 0.05863896 -0.08325763
0.054073732 -0.18743306 0.11159079 -0.117883295 -0.20373254 0.08044482 -0.056961503 -0.0471115
0.29711056 -0.97240406 -1.078373 -0.10489756 0.12168705 0.11627534 0.51144356 -1.028236
-0.76929927 0.07545107 -0.18110141 0.04807258 0.22502838 0.212476 0.10119277 0.14864789
0.3210826 0.42743304 -0.4497189 0.1999702 0.18415473 -0.25724506 0.2784095 0.08880237
0.05247065 0.09398235 0.39700234 -0.118893966 -0.09625414 0.19823429 0.22809152 0.343489
0.4663926 0.28439003 0.2774441 0.16807155 0.2294915 0.34821904 0.2023694 0.50331724
0.2746241 0.44120324 0.5106516 0.3015209 0.37344855 0.4301343 0.5373038 0.41474956
0.1918321 0.3683969 0.3011498 0.468336 0.20694947 0.29815546 0.36061236 0.41931817
0.38106847 0.19898337 0.28441393 0.16893035 0.4438236 0.33308515 0.36086997 0.46206912
-0.57457197 -1.0327202 -1.1363034 0.027972138 -1.3070346 -0.10418937 0.26289332 -0.9313593
-0.67554826 0.15517916 0.25482252 0.2889418 0.588402 -0.08857317 0.8413646 -0.2276708
0.65403587 1.4763411 -0.9995356 0.121584706 0.05051969 0.32515126 0.52078414 -0.2059633
-0.36222044 0.27926132 0.53134495 -0.396608 0.21205375 0.34720492 -0.32757986 0.47813448
0.3758808 0.25180346 0.48293373 0.06124505 0.4488028 0.28226358 0.14303389 0.33722922
0.3958731 0.34754047 0.2070446 0.2997752 0.32037693 0.24285682 0.3454719 0.4373045
0.4647781 0.4102271 0.20966853 0.2639658 0.19416474 0.33646008 0.4852033 0.43485224
0.36470777 0.2499163 0.44519123 0.36402866 0.31006342 0.337852 0.46553195 0.18918204
0.29598236 -0.91208774 -0.4623528 0.24191202 0.021339389 0.39424706 0.29937962 -0.69418406
-0.7779497 0.32239044 0.17297171 0.23308185 0.067077436 0.36879838 -0.14931846 0.31316072
0.22671577 0.0165854 -0.54254764 -0.8251851 0.26585376 0.16814129 -0.0018478169 0.4073211
0.37585533 -0.01831389 0.24337201 0.49791 0.23098768 0.23029092 0.2702799 -0.08080314
00000000: 72e2 e5bd c150 febd d2f0 f83d a4da 803d
00000010: 677d 42bc 5cd9 ccbd 8713 b2bd b7bd a43d
00000020: 29e3 48be 06b2 de3d 98d4 16be 84a1 8f3d
00000030: f018 67bb eef8 05bd 76c5 8b3c 5284 9fbd
00000040: 169b 983c 78e6 acbc 9bc8 25be 642a 98bd
00000050: 9b12 32be 2312 f5bd d033 54be 0552 c4bb
00000060: 8930 293c 0e04 40be e501 15be a167 933d
00000070: a506 413c 9cf9 c03d c9bb 9dbd 6186 d13d
00000080: ee38 c13e 58b8 a93e eb1b b63e b2a7 723e
00000090: b717 8a3e aca0 c33e e7a4 d33e a1a6 ae3e
000000a0: fbad 073f 2816 e73e 36f5 ce3e da2b b13e
000000b0: cf0a 803e 403e ee3e 535c 033f fbe6 d53e
000000c0: e240 993e 4c62 b43e e070 c93e 43e7 f83e
000000d0: ce39 e73e c35f 243e 32db ca3e d7a8 253e
000000e0: 8af9 6c3e 8d49 c63e d04e a13e a0a4 413e
000000f0: ea21 413e 55cf c13e 55d0 853e 0fb8 943e
00000100: 3249 9dbc cd51 8d3d 7dfd c73c cd77 8f3d
00000110: 6640 f6bb 3db7 c93c 7661 cc3d 0df4 9cbd
00000120: 2972 bdbd 5838 aa3d 3482 643d 37bc 9bbd
00000130: 81d9 1bbe c6c8 893d b2b8 91bc 1875 6dbe
00000140: 7507 5dbd cfba cf3d 1510 023d 6282 22bc
00000150: a5e9 72be 8beb 44be 682f 703d fa82 aabd
00000160: 6b7c 5d3d 74ee 3fbe b689 e43d cc6c f1bd
00000170: 439f 50be 41c0 a43d 7750 69bd fdf7 40bd
00000180: e01e 983e 79ef 78bf 2008 8abf 88d4 d6bd
00000190: 0f37 f93d c421 ee3d f7ed 023f 3d9d 83bf
000001a0: ccf0 44bf 1786 9a3d a672 39be c1e7 443d
000001b0: d76d 663e 4f93 593e 283e cf3d 2737 183e
000001c0: f064 a43e 81d8 da3e 8e41 e6be fdc4 4c3e
000001d0: 0f93 3c3e a0b5 83be b18b 8e3e 04de b53d
000001e0: 77eb 563d d179 c03d e443 cb3e ae7e f3bd
000001f0: e420 c5bd eefd 4a3e d390 693e cadd af3e
00000200: 03cb ee3e 929b 913e 270d 8e3e f31a 2c3e
00000210: d2ff 6a3e c449 b23e ed39 4f3e 66d9 003f
00000220: 889b 8c3e 64e5 e13e 10ba 023f f360 9a3e
00000230: a634 bf3e 903a dc3e be8c 093f 0e5a d43e
00000240: a26f 443e 859e bc3e 4e30 9a3e bcc9 ef3e
00000250: 90ea 533e d5a7 983e 2fa2 b83e dfb0 d63e
00000260: 681b c33e 4cc2 4b3e b49e 913e 14fc 2c3e
00000270: d93c e33e 238a aa3e f3c3 b83e 5394 ec3e
00000280: 2617 13bf 2d30 84bf 6472 91bf d325 e53c
00000290: e94c a7bf 3d61 d5bd f499 863e 906d 6ebf
000002a0: bbf0 2cbf 49e7 1e3e 1978 823e 2ef0 933e
000002b0: 83a1 163f da65 b5bd ac63 573f 8922 69be
000002c0: e56e 273f bff8 bc3f 91e1 7fbf 6701 f93d
000002d0: bced 4e3d 3a7a a63e 1c52 053f 0be8 52be
000002e0: f574 b9be 57fb 8e3e 3906 083f 3410 cbbe
000002f0: 9e24 593e d8c4 b13e 8cb8 a7be 0bce f43e
00000300: 7373 c03e 62ec 803e 1743 f73e 17dc 7a3d
00000310: 7bc9 e53e da84 903e 7a77 123e 4fa9 ac3e
00000320: e1af ca3e d3f0 b13e 8003 543e 237c 993e
00000330: 7208 a43e 75af 783e b1e1 b03e 60e6 df3e
00000340: 65f7 ed3e 4909 d23e 59b3 563e 8626 873e
00000350: 1fd3 463e 7f44 ac3e 916c f83e f4a4 de3e
00000360: faba ba3e 0fea 7f3e 1bf0 e33e f761 ba3e
00000370: a2c0 9e3e f0fa ac3e 345a ee3e f0b8 413e
00000380: 008b 973e 957e 69bf 82b9 ecbe c9b7 773e
00000390: f1cf ae3c c0da c93e 4948 993e 0cb6 31bf
000003a0: b627 47bf 5c10 a53e 7f1f 313e 02ad 6e3e
000003b0: e55f 893d 24d3 bc3e f0e6 18be 9a56 a03e
000003c0: 2e28 683e 1bde 873c 67e4 0abf 553f 53bf
000003d0: fc1d 883e 3b2d 2c3e 7232 f2ba 648c d03e
000003e0: 1c70 c03e 0307 96bc 8336 793e 0fee fe3e
000003f0: 0988 6c3e 62d1 6b3e 2162 8a3e 1e7c a5bd

model.2.bias f4 [16]
0.031824995 0.1300609 0.0847188 0.25579196 0.19291063 -0.3690223 0.20496461 0.11325959
0.47118676 -0.37813914 0.3217169 0.057481654 0.11867066 -0.35244435 0.20472978 -0.0028017391
00000000: ed5a 023d af2e 053e 0d81 ad3d 2af7 823e
00000010: 5d8a 453e 7ef0 bcbe 3ee2 513e a5f4 e73d
00000020: 643f f13e 749b c1be 14b8 a43e e271 6b3d
00000030: 9a09 f33d 9673 b4be afa4 513e 629d 37bb

model.4.weight f4 [1, 16]
-0.14361826 0.5923284 -0.06891702 -1.0216289 0.49201465 -1.0984209 0.57868123 -0.97132695
0.6704256 -1.0434381 0.39403304 -0.38983038 -0.5973105 -0.6992471 0.38551825 -0.15694442
00000000: aa10 13be d6a2 173f 5e24 8dbd bcc4 82bf
00000010: 58e9 fb3e 0e99 8cbf 7424 143f e2a8 78bf
00000020: 03a1 2b3f 618f 85bf b3be c93e d997 c7be
00000030: 57e9 18bf dc01 33bf a662 c53e 0ab6 20be
